closed/kai_jiang/code/ic/LC236R5E176_BOARD_V2.0/models/pretrainedResnet.onnx (onnx, 326992 bytes, 20 tensors)

model/conv2d_5/Conv2D f4 [32, 16, 1, 1]
0.15564956 -0.015092272 -0.088373736 -0.05534868 0.09328092 0.17211147 0.263181 0.123572715
0.06279492 0.009270156 0.08226639 -0.22350746 0.031302895 -0.17590916 -0.12233037 0.012359896
-0.057207663 0.10638992 0.10831561 -0.16831744 -0.006073631 0.011203356 -0.1003838 0.095484324
0.018898593 -0.0122967465 0.05739383 -0.051526044 0.060885735 0.04011184 -0.052063636 0.15112434
0.3096285 -0.038117025 0.055813096 -0.049374785 0.02224485 0.011867131 0.059745707 -0.11363335
0.06567666 -0.08380818 -0.047030102 0.028341893 0.011048152 0.06691957 -0.03862888 0.04394648
0.27903643 0.1964755 0.018917492 -0.09518417 -0.112422585 0.055809345 -0.0450452 0.1187979
0.2471028 -0.09088072 0.012406838 0.10192628 0.121632785 0.10088775 0.05072364 0.070691906
0.06269242 -0.1735457 -0.14732759 -0.1167704 -0.07112523 0.55684906 0.076580256 0.1890494
0.19214168 -0.1671538 0.009298375 -0.25680462 -0.12102791 0.008197708 -0.10190813 -0.25652048
0.0032337953 0.009408269 0.06945991 -0.05270946 0.12695478 0.09932092 0.0074019087 -0.03013257
-0.02618507 -0.039097108 0.046642855 0.025704274 0.01603449 0.011942358 0.07831652 -0.14140694
0.02103733 0.11242171 0.19265555 -0.11671833 0.08828365 0.19636582 -0.08042345 -0.17923695
0.00955668 -0.0021798846 0.22493555 -0.34347758 0.33112532 -0.08100848 0.08995323 -0.13178863
-0.06394125 -0.08484235 0.075351566 -0.14277153 0.08113386 0.20484437 -0.16641983 -0.038464814
-0.10169233 0.044749893 0.29858667 0.21800044 0.055747714 -0.0011223315 0.15374435 -0.08162275
-0.022060515 0.10001323 0.062343214 -0.05482274 -0.11219033 0.06938274 -0.025539158 0.020661179
-0.009870487 0.074355386 -0.07644332 -0.004107179 -0.12292565 0.05809649 0.12787752 -0.0753986
0.100899234 -0.03569805 0.028870484 -0.057808425 0.013722274 -0.15908156 0.074685775 -0.15867619
-0.21291763 0.16735293 0.10917458 0.15296899 0.062806904 0.026294392 0.12729532 0.050311584
-0.16193832 -0.23143332 -0.15491377 -0.08081283 -0.08416982 -0.13867861 0.04785823 -0.056762498
0.15100135 -0.2357482 -0.047547087 -0.15042011 0.10477946 -0.18220565 -0.24495521 -0.15447435
-0.47238818 0.06789165 0.11551005 -0.19228603 -0.13463148 -0.0894147 0.29265845 -0.0075617195
-0.041839775 0.19608374 -0.09333462 0.22574888 -0.2697196 -0.008764997 0.25827768 -0.31030294
0.06964326 0.09279217 0.03823225 -0.08418523 -0.078125276 0.14389122 -0.20031503 0.044102203
-0.013036238 -0.3726923 -0.025496079 0.05894858 0.088949576 0.07902792 -0.041924447 0.016445037
-0.08581644 0.05146664 0.020006008 0.045361422 0.10507304 -0.09970202 0.24079853 0.0067961873
-0.11618141 0.12327274 -0.070288986 0.034088742 -0.09537515 -0.09503105 0.055461492 -0.15766989
-0.08183879 -0.013190036 0.014610342 0.21309881 -0.06614383 -0.028644752 -0.20947975 -0.11628757
-0.24776582 0.16801012 0.21903667 -0.046344846 0.04362577 -0.05224719 0.069918945 0.08369349
0.09561497 0.11183335 0.16781873 0.24379663 0.11026571 -0.17057559 0.25006035 -0.07992802
0.12313565 0.08722757 0.14869829 0.00064535247 0.52406824 -0.017694207 0.07933927 0.0017027823
00000000: 9962 1f3e 9445 77bc 4afd b4bd 4cb5 62bd
00000010: 110a bf3d fd3d 303e a9bf 863e b113 fd3d
00000020: 9f9a 803d dae1 173c 487b a83d 24df 64be
00000030: 7737 003d 8821 34be 5888 fabd 2981 4a3c
00000040: 9552 6abd f5e2 d93d 93d4 dd3d 685b 2cbe
00000050: 4f05 c7bb 488e 373c 0696 cdbd 498d c33d
00000060: 39d1 9a3c 4b78 49bc cb15 6b3d f90c 53bd
00000070: 5263 793d 504c 243d ae40 55bd 57c0 1a3e
00000080: a087 9e3e 9920 1cbd 469c 643d 373d 4abd
00000090: d53a b63c 5b6e 423c eab7 743d 9ab8 e8bd
000000a0: 7c81 863d a0a3 abbd a3a2 40bd 422d e83c
000000b0: 4f03 353c 210d 893d 5139 1ebd 3901 343d
000000c0: dddd 8e3e e030 493e dbf8 9a3c ebef c2bd
000000d0: d03d e6bd 5798 643d 5181 38bd 504c f33d
000000e0: 8408 7d3e ac1f babd 0d46 4b3c babe d03d
000000f0: 9c1a f93d 3d9e ce3d 97c3 4f3d ebc6 903d
00000100: e264 803d f7b5 31be 0bdd 16be 5225 efbd
00000110: 1baa 91bd a98d 0e3f 1cd6 9c3d 2a96 413e
00000120: cac0 443e 5e2a 2bbe 3658 183c e57b 83be
00000130: 7bdd f7bd ae4f 063c 36b5 d0bd a756 83be
00000140: 15ee 533b 2425 1a3c ff40 8e3d e0e5 57bd
00000150: 6f00 023e c468 cb3d b68b f23b 94d8 f6bc
00000160: 1282 d6bc 4a24 20bd 940c 3f3d c591 d23c
00000170: c35a 833c e1a9 433c 6964 a03d fbcc 10be
00000180: 7b56 ac3c 5a3d e63d 7f47 453e 050a efbd
00000190: 0fce b43d 1f14 493e 0db5 a4bd e489 37be
000001a0: 9f93 1c3c 65dc 0ebb 8155 663e 4bdc afbe
000001b0: 4289 a93e c6e7 a5bd 6639 b83d 99f3 06be
000001c0: a1f3 82bd d3c1 adbd ec51 9a3d b332 12be
000001d0: 8229 a63d b9c2 513e f669 2abe 488d 1dbd
000001e0: 1144 d0bd aa4b 373d 5ae0 983e 823b 5f3e
000001f0: b757 643d 321b 93ba 296f 1d3e d429 a7bd
00000200: 41b8 b4bc bdd3 cc3d 995b 7f3d cf8d 60bd
00000210: 0bc4 e5bd 8a18 8e3d 7f37 d1bc a241 a93c
00000220: d3b7 21bc a347 983d 518e 9cbd 8495 86bb
00000230: 71c0 fbbd 96f6 6d3d 53f2 023e 956a 9abd
00000240: 42a4 ce3d 1e38 12bd cb81 ec3c 87c8 6cbd
00000250: 64d3 603c 47e6 22be dbf4 983d 037c 22be
00000260: 1407 5abe 915e 2b3e ec96 df3d e7a3 1c3e
00000270: e8a0 803d 5667 d73c b459 023e 8513 4e3d
00000280: 29d3 25be dbfc 6cbe b7a1 1ebe 3281 a5bd
00000290: 3a61 acbd c401 0ebe fe06 443d cb7f 68bd
000002a0: 19a0 1a3e fa67 71be bcc0 42bd bb07 1abe
000002b0: 9d96 d63d 1e94 3abe 8ad5 7abe 862e 1ebe
000002c0: dddc f1be c70a 8b3d 8890 ec3d a1e6 44be
000002d0: d6dc 09be 0e1f b7bd 54d7 953e 4dc8 f7bb
000002e0: 2f60 2bbd 2dca 483e 3926 bfbd b72a 673e
000002f0: b018 8abe 109b 0fbc f93c 843e 07e0 9ebe
00000300: 20a1 8e3d d209 be3d 6b99 1c3d 4e69 acbd
00000310: 2500 a0bd 3858 133e 621f 4dbe 83a4 343d
00000320: f295 55bc 86d1 bebe 27dd d0bc 1174 713d
00000330: 322b b63d 64d9 a13d f8b8 2bbd beb7 863c
00000340: 88c0 afbd afce 523d a4e3 a33c e6cc 393d
00000350: 8930 d73d 9330 ccbd e493 763e 8db2 de3b
00000360: 85f0 edbd 6b76 fc3d acf3 8fbd a3a0 0b3d
00000370: 0c54 c3bd a49f c2bd 972b 633d 3774 21be
00000380: 189b a7bd 051b 58bc 3760 6f3c 9336 5a3e
00000390: 6b76 87bd 66a8 eabc dc81 56be 2d28 eebd
000003a0: 53b6 7dbe d80a 2c3e 264b 603e 18d4 3dbd
000003b0: efb0 323d 2601 56bd aa31 8f3d 7e67 ab3d
000003c0: c8d1 c33d e208 e53d acd8 2b3e d3a5 793e
000003d0: fdd2 e13d 5eab 2ebe e907 803e 4db1 a3bd
000003e0: 8b2e fc3d 5ea4 b23d 5d44 183e df2c 293a
000003f0: 5629 063f 71f3 90bc a17c a23d e52f df3a

model/dense/BiasAdd/ReadVariableOp/resource f4 [10]
-0.0889325 -0.1562535 0.017591842 0.07068574 0.04662481 -0.1322021 0.17065033 -0.10878023
-0.0067266366 0.17929795
00000000: 3e22 b6bd eb00 20be c41c 903c afc3 903d
00000010: a8f9 3e3d fd5f 07be f6be 2e3e 2bc8 debd
00000020: 1e6b dcbb e299 373e

model/activation/Relu;model/batch_normalization/FusedBatchNormV3;model/conv2d/BiasAdd/ReadVariableOp/resource;model/conv2d/BiasAdd;model/conv2d_2/Conv2D;model/conv2d/Conv2D f4 [16]
0.6085741 0.32213515 0.6954297 0.3131217 0.5022296 0.17644717 0.5174186 0.5955774
0.18296473 0.30430925 0.1453919 0.7198152 0.7428299 -0.17246053 -0.93988913 1.4452525
00000000: 83cb 1b3f e6ee a43e ae07 323f 7d51 a03e
00000010: 1e92 003f 91ae 343e 8c75 043f c377 183f
00000020: 1b5b 3b3e 6cce 9b3e 9de1 143e cf45 383f
00000030: 1a2a 3e3f 7e99 30be 939c 70bf 09fe b83f

model/activation_3/Relu;model/batch_normalization_3/FusedBatchNormV3;model/conv2d_3/BiasAdd/ReadVariableOp/resource;model/conv2d_3/BiasAdd;model/conv2d_5/Conv2D;model/conv2d_3/Conv2D f4 [32]
1.3427663 0.27204052 1.6844784 -1.4711312 2.2134347 1.5519774 -0.9157349 1.9774047
1.2817357 0.78573704 -0.30231592 1.7340367 0.09474555 -0.6885462 1.8836789 0.4473164
0.6134078 -0.44398844 -1.6305579 0.082147636 0.37630153 -0.52380556 0.35816813 0.89429146
0.43534926 0.10371055 2.813342 0.21707761 0.71607983 1.317789 -0.14503258 0.92491657
00000000: c4df ab3f e548 8b3e fd9c d73f 074e bcbf
00000010: eaa8 0d40 32a7 c63f 9a6d 6abf 991b fd3f
00000020: ea0f a43f 1026 493f 27c9 9abe eaf4 dd3f
00000030: f409 c23d 9044 30bf 641c f13f a806 e53e
00000040: 4b08 1d3f 7452 e3be 1fb6 d0bf 053d a83d
00000050: 98aa c03e 1f18 06bf d061 b73e 49f0 643f
00000060: 19e6 de3e 3266 d43d cc0d 3440 9849 5e3e
00000070: 0251 373f 4fad a83f 6c83 14be 55c7 6c3f

model/conv2d/Conv2D f4 [16, 3, 3, 3]
0.0022538668 0.0019029289 0.006713244 -0.007912597 -0.0006645407 -0.0017788426 -0.007291296 0.0033549778
-0.007848654 0.002964549 -0.0014523757 0.0014997496 -0.00087399344 0.0035770473 -0.0036274365 -4.5112425e-05
0.0051666163 -0.0021129216 -0.0042114817 -0.005337925 -0.009084594 0.006668083 -0.0010911193 -0.0016671378
0.0006830832 0.011306348 0.0038883307 -0.00035563964 0.0020975166 0.0011395323 -0.00070429157 -0.0024461267
0.0035773583 -0.001984176 0.0013994413 0.002723169 0.00068158837 -0.0017899923 -0.0025537338 -0.00041237948
-0.0033275012 -0.0007982316 0.0010709602 0.00086223014 -0.0024045012 -0.0026296226 -0.00031926547 -0.0005704626
-0.0008766267 -0.0027463404 0.002695877 0.001208965 -0.000589537 0.0022330426 -0.004215605 0.0043919757
-0.00587887 0.0033719365 -0.004768045 -0.0034317516 0.008913541 0.0017219912 0.0004807198 -0.0054630297
0.00469101 0.0031434481 -0.0038295449 -0.005183793 -0.0042891563 0.00037962172 0.0037731198 0.0046361038
0.0025224024 0.0022653185 0.00034350244 -0.0008298414 -0.0015059062 -0.0062209717 -0.0005751877 -0.0015533504
0.006510477 -0.0062581524 -0.0065320795 0.00038732257 9.52699e-05 -0.0014476153 0.0008181328 0.0041551315
-0.003670865 -0.0029782671 0.00034505696 0.005566135 0.004187426 0.0031815318 0.011819187 0.0022507473
-0.0005258341 0.00065451604 0.0026078338 0.0006638174 -0.0019373405 -0.0045005796 0.0013648228 0.0017725388
-0.0039034965 -0.0038116702 -0.003442504 -0.00082389335 -0.009580522 -0.006295476 0.0029290342 -0.007899773
-0.00701268 0.00095172616 0.007926613 0.007237263 0.005908834 0.0037665586 0.0028141413 0.00013563334
0.0010221653 -0.0006723587 0.0028282101 0.002415669 -0.005390709 -0.006332608 0.0063821026 -0.0027925568
-0.0012433858 0.00692759 -0.0023003388 0.0020329796 -0.0028196839 -0.003231401 -0.001772292 0.0040300316
-0.003645167 -0.00087786035 -0.0039653485 -0.002636756 -0.00086551293 -0.0006501471 0.004366354 0.004531817
0.001236163 -0.006771981 -0.002946732 -0.0009813369 0.00066582626 0.005378034 -0.0001246666 -0.0018020825
0.0053616217 0.00086691824 -0.0043691983 -0.003657864 -0.001197336 0.0005059145 0.0020254538 0.0015713812
0.0021510306 0.0018192994 0.0046377247 -0.001802532 -0.003184292 -0.004040051 3.4806664e-05 0.0075822393
0.0016230191 -0.004330387 -0.0016120507 -0.0071758796 -0.0017616992 0.0018285016 -0.0044760383 0.000500542
0.009554895 0.0069275014 -0.0044161277 0.0062395763 0.0048712115 0.0073589706 0.0018766697 0.0009865931
-0.007733174 -0.0013535019 0.004794329 -0.009353233 -0.006396955 0.012119686 0.013304553 0.0038826778
0.002994751 -0.0024209926 -0.0057995967 -0.0114047555 -0.014909126 0.003162109 -0.011083872 -0.0072798906
0.00470563 0.009255092 0.0026232065 0.00011843065 0.00824901 -0.014075607 0.0064219525 -0.009817732
-0.008383269 0.00080441916 0.001684206 0.004476803 -0.0053830296 0.0067549753 -0.00021424114 0.010635416
0.0021657234 0.0053750086 0.004930886 -0.00056108105 -0.0056521823 -0.005766708 0.002786138 -0.0005679832
-0.00036729607 -0.0048919814 0.0046405033 -0.00066749705 -0.0009415732 0.0018165909 -0.006153044 -0.0030421535
-0.00275164 0.0007801336 0.0010716843 0.0066178506 -0.0012412848 0.0012867275 0.005313912 -0.0010660887
0.0009903434 -0.0030162742 -0.0010844376 0.003998705 -0.0006541353 -0.0024956982 0.006663009 -0.0030794526
-0.0007565341 0.00046735385 0.0009764414 -0.001429572 -0.0014103404 -0.0009480205 -0.0019341204 0.0025344568
00000000: 9cb5 133b b36b f93a c6fa db3b d6a3 01bc
00000010: 9234 2eba 0e28 e9ba d3eb eebb 30df 5b3b
00000020: a497 00bc e148 423b a45d beba 3f93 c43a
00000030: b51c 65ba e56c 6a3b 49ba 6dbb 1937 3db8
00000040: b84c a93b f178 0abb 7800 8abb c3e9 aebb
00000050: 8dd7 14bc ef7f da3b e303 8fba dd83 daba
00000060: f010 333a 433e 393c 5dd3 7e3b 2575 bab9
00000070: 7d76 093b 5c5c 953a 35a0 38ba 324f 20bb
00000080: 1d72 6a3b f308 02bb 756d b73a 3277 323b
00000090: 9fac 323a 2d9e eaba 8b5c 27bb a334 d8b9
000000a0: 3512 5abb 6a40 51ba 765f 8c3a 4907 623a
000000b0: d694 1dbb bf55 2cbb 1663 a7b9 198b 15ba
000000c0: 6ccd 65ba f2fb 33bb 50ad 303b 2276 9e3a
000000d0: 298b 1aba 3d58 123b 0f23 8abb 90ea 8f3b
000000e0: 89a3 c0bb b5fb 5c3b 433d 9cbb 3de7 60bb
000000f0: 1a0a 123c 70b4 e13a 1f09 fc39 3703 b3bb
00000100: 0bb7 993b 4f02 4e3b 1af9 7abb cfdc a9bb
00000110: 0d8c 8cbb f707 c739 7246 773b 75ea 973b
00000120: e44e 253b bd75 143b 1e18 b439 b789 59ba
00000130: d461 c5ba 4bd9 cbbb 31c8 16ba ca99 cbba
00000140: d755 d53b 3011 cdbb 0e0b d6bb 8e11 cb39
00000150: a3cb c738 e9bd bdba f677 563a c527 883b
00000160: e592 70bb 082f 43bb c3e8 b439 2064 b63b
00000170: ad36 893b 3f81 503b 43a5 413c 4681 133b
00000180: 21d8 09ba d493 2b3a 31e8 2a3b 0804 2e3a
00000190: 5cee fdba 9979 93bb dbe3 b23a 8854 e83a
000001a0: ced1 7fbb 37cd 79bb a29b 61bb 8cfa 57ba
000001b0: 9ff7 1cbc 484a cebb 0af5 3f3b 0d6e 01bc
000001c0: a0ca e5bb 437d 793a a0de 013c 9026 ed3b
000001d0: e49e c13b 5ed8 763b 756d 383b cc38 0e39
000001e0: 2dfa 853a 3b41 30ba 7e59 393b 3350 1e3b
000001f0: 8ba4 b0bb c481 cfbb f520 d13b 5403 37bb
00000200: 1bf9 a2ba d600 e33b 48c1 16bb bd3b 053b
00000210: 72ca 38bb eac5 53bb 404c e8ba 5b0e 843b
00000220: c1e3 6ebb 3620 66ba c1ef 81bb 6dcd 2cbb
00000230: 97e3 62ba a26e 2aba a213 8f3b a37f 943b
00000240: bf06 a23a 7ee7 ddbb f61d 41bb 34a0 80ba
00000250: d88a 2e3a 383a b03b f0b8 02b9 db33 ecba
00000260: 8bb0 af3b e641 633a 7e2b 8fbb c6b8 6fbb
00000270: eeef 9cba 599f 043a 7abd 043b cef6 cd3a
00000280: 4ef8 0c3b 8f75 ee3a 0ef8 973b f042 ecba
00000290: 8eaf 50bb 6762 84bb 5ffd 1138 6f74 f83b
000002a0: 7cbb d43a ebe5 8dbb 724b d3ba a423 ebbb
000002b0: d1e8 e6ba 55aa ef3a bbab 92bb ce36 033a
000002c0: 228c 1c3c 1800 e33b 2ab5 90bb 5c75 cc3b
000002d0: af9e 9f3b 8523 f13b 96fa f53a 9250 813a
000002e0: 9166 fdbb fd67 b1ba bf19 9d3b 4d3e 19bc
000002f0: 8c9d d1bb a691 463c 57fb 593c 8674 7e3b
00000300: 9643 443b 84a9 1ebb 8b0a bebb 03db 3abc
00000310: 6845 74bc 633b 4f3b 2199 35bc 268c eebb
00000320: af31 9a3b aba2 173c 1aea 2b3b f95d f838
00000330: db26 073c 609d 66bc 3e6f d23b 8dda 20bc
00000340: fb59 09bc a8df 523a 93c0 dc3a 25b2 923b
00000350: 2064 b0bb d758 dd3b eba5 60b9 2b40 2e3c
00000360: cfee 0d3b d720 b03b 4593 a13b 8315 13ba
00000370: f135 b9bb a7f6 bcbb a497 363b b5e4 14ba
00000380: a591 c0b9 ea4c a0bb 5d0f 983b f8fa 2eba
00000390: e8d3 76ba ad1a ee3a 799f c9bb de5e 47bb
000003a0: dc54 34bb e181 4c3a c277 8c3a 8eda d83b
000003b0: 9bb2 a2ba 69a7 a83a 5320 ae3b 00bc 8bba
000003c0: 69ce 813a afac 45bb b023 8eba 9207 833b
000003d0: 477a 2bba de8e 23bb 5f55 da3b a4d0 49bb
000003e0: 2552 46ba 2c07 f539 e0f7 7f3a 7a60 bbba
000003f0: 2cdb b8ba 9484 78ba 5082 fdba 2119 263b

model/batch_normalization_6/FusedBatchNormV3;model/conv2d_7/BiasAdd/ReadVariableOp/resource;model/conv2d_7/BiasAdd f4 [64]
0.74693984 -0.032827046 -0.99766225 0.25118053 2.827675 -0.89994836 0.21527836 -1.2478493
3.4261465 1.1744058 1.1222132 2.597293 0.23086713 2.5539296 2.1877995 -0.9236322
0.40385428 1.3769656 1.6035613 -0.5725031 0.1387267 0.9610665 2.4657688 0.03143601
-1.0783435 0.5864026 2.4868867 1.2089959 2.638323 -0.4933432 2.285652 4.790483
5.541843 1.8351827 -0.90373737 -0.9542784 1.4236367 1.4972085 -0.07660492 3.17206
-0.28809738 2.998271 3.6224055 -0.7227044 2.0566926 -0.19170788 0.7780906 0.23415203
0.34927925 -1.094206 1.4955505 1.2949516 2.8718395 0.9365527 3.6334662 3.5876722
1.197115 2.5327222 2.3932607 1.5079201 -1.1010208 1.7074449 -0.46593857 2.7394626
00000000: 7337 3f3f a775 06bd cb66 7fbf bc9a 803e
00000010: a1f8 3440 0463 66bf ee71 5c3e 87b9 9fbf
00000020: fc45 5b40 ee52 963f afa4 8f3f 0c3a 2640
00000030: 6f68 6c3e 9573 2340 e804 0c40 2973 6cbf
00000040: fdc5 ce3e 6940 b03f 7f41 cd3f 908f 12bf
00000050: 5f0e 0e3e 7408 763f 28cf 1d40 0cc3 003d
00000060: 2907 8abf 7b1e 163f 2729 1f40 61c0 9a3f
00000070: 49da 2840 7b97 fcbe 1f48 1240 a34b 9940
00000080: c756 b140 44e7 ea3f 555b 67bf 974b 74bf
00000090: ba39 b63f 87a4 bf3f 0ae3 9cbd 0803 4b40
000000a0: 8081 93be ace3 3f40 7ed5 6740 2803 39bf
000000b0: daa0 0340 124f 44be f230 473f 8dc5 6f3e
000000c0: bbd4 b23e f10e 8cbf 336e bf3f f9c0 a53f
000000d0: 38cc 3740 ebc1 6f3f b68a 6840 6c9c 6540
000000e0: 103b 993f 1f18 2240 2f2b 1940 8703 c13f
000000f0: 40ee 8cbf 8e8d da3f 808f eebe 5b53 2f40

model/conv2d_7/Conv2D f4 [64, 64, 3, 3]
-0.6040192 0.26024988 0.2838667 -0.4874359 -0.18468562 -0.5890581 -0.2084802 0.085871376
-0.18847549 -0.14679427 -0.059647452 -0.024043089 -0.052566405 -0.48755488 -0.41658607 0.009229557
-0.43871245 -0.27484354 -0.18074928 0.19307396 0.2305739 0.46251005 0.019227963 0.16637802
-0.12140863 0.030822203 -0.1429848 -0.0956847 -0.46073517 -0.0474522 -0.5725122 -0.6716596
-0.31472847 0.5388428 0.02711789 -0.16255343 -0.6134598 -0.016565096 -0.45460644 -0.5198084
-0.24602084 -0.077349074 -0.019373141 -0.46877688 -0.6836858 0.74290913 0.22652961 -0.30971187
0.54625267 0.45435077 0.437518 -0.12324974 -0.33269182 0.33399037 0.42455098 0.27699134
0.52678955 0.6865942 0.45309258 0.023026658 0.7035531 0.18024066 -0.5580327 0.22539438
-0.002325395 0.07145465 0.51438457 -0.04493317 -0.17054589 0.27393264 -0.46572518 -0.3530416
-0.013466238 -0.04444566 0.06141246 -0.51169723 -0.48682588 0.015318048 -0.1866821 -0.1855358
-0.011366171 0.389372 0.032048125 -0.19365361 0.40342042 -0.1498459 0.07913706 -0.16567084
-0.51617557 0.4851846 -0.70203906 -0.26873323 0.1578671 -0.1008903 -0.07783515 0.053780437
-0.11002476 0.08260187 0.119717695 0.27241746 0.17761192 -0.28762114 0.35880673 0.2526018
0.25584126 -0.3545183 -0.38174176 0.021330796 0.15113477 0.79936624 1.1223348 -0.08753293
0.07033027 1.0949056 -0.580422 -0.08578581 0.15024623 -0.22246513 -0.34147525 -0.2828329
-0.27104303 -0.2658193 -0.19944873 0.13273355 0.47010198 1.2221695 0.46896362 -0.3366741
-0.38843328 0.3055302 0.11667659 -0.04818333 -0.21793357 0.14542654 0.36399594 -0.39192992
-0.7805534 -0.5617461 -0.25344852 0.07178318 -0.47488168 0.072265044 0.6273394 1.045749
-0.057011697 -0.27052104 -0.3302354 0.033675343 -0.20613779 -0.13999055 -0.013643631 -0.03400772
-0.04814271 0.22466472 0.13480704 -0.164057 0.14418678 0.3574721 -0.6434164 0.54290193
0.2856869 0.035865758 -0.15499128 -0.14758602 -0.30405825 -0.43760303 -0.20529827 -0.43124914
-0.20026664 -0.09636129 -0.15055525 0.30292058 0.14220859 -0.7014344 0.23190695 -0.050076053
-0.105166085 -0.07494446 -0.54492456 0.19654793 0.0035503055 0.44936463 0.44953963 0.1513805
0.32456872 -0.66868985 0.5765401 -0.025823174 -0.4916564 -0.4478668 -0.091522254 0.56714386
0.077060625 -0.13570479 0.24496445 0.83157897 0.220236 -0.49063295 0.7480762 1.2549324
0.47764507 -0.15338492 0.18309897 0.42666394 -0.88203907 -0.29585603 0.340503 0.15779726
0.15861319 0.12580587 0.6151002 0.05412977 -0.28140056 0.44127187 0.09263957 0.13533363
-0.40034673 0.22010902 0.49061766 -0.73486686 0.08755008 0.059740365 0.15133113 -0.14099847
-0.23149544 -0.3324108 -0.3452045 -0.03426026 -0.039354824 -0.2189017 -0.46128938 0.3423626
0.07567647 0.10031544 -0.18522254 -0.033384766 -0.10829965 -0.77549106 -0.022458313 0.05708034
-0.20899117 0.0554851 -0.14745276 -0.011030686 -0.038858403 -0.3127002 0.007765534 -0.025753368
0.45535967 1.0410206 0.45680752 0.3075471 -0.61749524 -0.25730938 -0.25770772 -0.10394094
00000000: 01a1 1abf 793f 853e fa56 913e 3391 f9be
00000010: 3a1e 3dbe 83cc 16bf d57b 55be 55dd af3d
00000020: b8ff 40be 3d51 16be e350 74bd 03f6 c4bc
00000030: df4f 57bd cba0 f9be c54a d5be 9137 173c
00000040: eb9e e0be 4bb8 8cbe 5716 39be 2eb5 453e
00000050: 901b 6c3e 1ece ec3e f683 9d3c 005f 2a3e
00000060: 16a5 f8bd d87e fc3c 9b6a 12be 57f6 c3bd
00000070: 7be5 ebbe 3d5d 42bd 2990 12bf e2f1 2bbf
00000080: 1724 a1be 9af1 093f 5626 de3c 6874 26be
00000090: b40b 1dbf 86b3 87bc 2dc2 e8be 2a12 05bf
000000a0: e3ec 7bbe 3169 9ebd 6cb4 9ebc 8603 f0be
000000b0: 0806 2fbf 4b2f 3e3f 61f7 673e 8e92 9ebe
000000c0: 37d7 0b3f aaa0 e83e 5c02 e03e 5c6a fcbd
000000d0: 9556 aabe c900 ab3e bf5e d93e cfd1 8d3e
000000e0: aedb 063f a3c4 2f3f c0fb e73e 67a2 bc3c
000000f0: 0e1c 343f 0291 383e 3bdb 0ebf c9cd 663e
00000100: a765 18bb d156 923d b5ae 033f d80b 38bd
00000110: 95a3 2ebe e640 8c3e 8873 eebe dec1 b4be
00000120: 7fa1 5cbc a70c 36bd a28b 7b3d 97fe 02bf
00000130: 3e41 f9be 8df8 7a3c 9829 3fbe 19fd 3dbe
00000140: 2d39 3abc c45b c73e e544 033d 224d 46be
00000150: 1f8d ce3e 3471 19be 9c12 a23d 9ea5 29be
00000160: 1524 04bf 1e6a f83e d5b8 33bf 6797 89be
00000170: eaa7 213e 939f cebd 0968 9fbd e048 5c3d
00000180: a954 e1bd 2b2b a93d 8d2e f53d 4d7a 8b3e
00000190: e6df 353e 1443 93be 84b5 b73e 0655 813e
000001a0: a0fd 823e 6c83 b5be a873 c3be ecbd ae3c
000001b0: 13c3 1a3e 44a3 4c3f aba8 8f3f 7744 b3bd
000001c0: 5109 903d de25 8c3f 8996 14bf 79b0 afbd
000001d0: 26da 193e e6cd 63be d8d5 aebe 79cf 90be
000001e0: 27c6 8abe 7819 88be 4a3c 4cbe 4eeb 073e
000001f0: 35b1 f03e 0d70 9c3f 001c f03e 8c60 acbe
00000200: bae0 c6be 746e 9c3e 23f4 ee3d e25b 45bd
00000210: fa29 5fbe b2ea 143e ad5d ba3e 0aab c8be
00000220: 59d2 47bf 98ce 0fbf 01c4 81be 0f03 933d
00000230: b123 f3be b2ff 933d 5199 203f 1adb 853f
00000240: 1985 69bd bc81 8abe 9d14 a9be 28ef 093d
00000250: c915 53be af59 0fbe 8989 5fbc ae4b 0bbd
00000260: 4a31 45bd 820e 663e db0a 0a3e 8ffe 27be
00000270: b3a5 133e 9506 b73e f0b6 24bf 9ffb 0a3f
00000280: 8e45 923e f9e7 123d 09b6 1ebe ca20 17be
00000290: 86ad 9bbe 810d e0be b639 52be b0cc dcbe
000002a0: b312 4dbe 1159 c5bd 282b 1abe 6818 9b3e
000002b0: 219f 113e 3491 33bf 0479 6d3e 8c1c 4dbd
000002c0: 5161 d7bd 7b7c 99bd 2d80 0bbf dc43 493e
000002d0: 3eac 683b 1f13 e63e 0f2a e63e 7d03 1b3e
000002e0: df2d a63e 422f 2bbf 2298 133f 1f8b d3bc
000002f0: 63ba fbbe cc4e e5be 0570 bbbd 5730 113f
00000300: f6d1 9d3d 32f6 0abe f6d7 7a3e 5ce2 543f
00000310: 8c85 613e 3e34 fbbe ec81 3f3f a0a1 a03f
00000320: e58d f43e f010 1dbe 4c7e 3b3e b273 da3e
00000330: 50cd 61bf 717a 97be 6956 ae3e 9b95 213e
00000340: 7f6b 223e 41d3 003e 3577 1d3f 2db7 5d3d
00000350: bc13 90be 63ee e13e d1b9 bd3d e694 0a3e
00000360: 3ffa ccbe 4264 613e 3d32 fb3e 3c20 3cbf
00000370: 754d b33d 50b2 743d 8cf6 1a3e e761 10be
00000380: 240d 6dbe c031 aabe a5be b0be 7d54 0cbd
00000390: 8632 21bd c427 60be 1f2e ecbe 274a af3e
000003a0: 44fc 9a3d 2e72 cd3d faaa 3dbe 77be 08bd
000003b0: 35cc ddbd 9586 46bf 7ffa b7bc 13cd 693d
000003c0: c801 56be 5844 633d dbfd 16be 0dba 34bc
000003d0: fd29 1fbd 3e1a a0be 0576 fe3b baf8 d2bc
000003e0: e724 e93e 2a40 853f ade2 e93e d076 9d3e
000003f0: 2b14 1ebf 0ebe 83be 44f2 83be fdde d4bd

model/batch_normalization_2/FusedBatchNormV3;model/conv2d_2/BiasAdd/ReadVariableOp/resource;model/conv2d_2/BiasAdd f4 [16]
0.89336634 0.25248864 -0.2405197 -1.2809079 0.09700467 0.055712633 -0.38221514 -0.92598
-0.0117415795 1.1538154 1.1317824 -0.24650137 -0.20289788 0.14664297 0.5980335 -1.0767689
00000000: a8b3 643f 3146 813e cc4a 76be caf4 a3bf
00000010: 62aa c63d ee32 643d b4b1 c3be 060d 6dbf
00000020: c15f 40bc 39b0 933f 3fde 903f db6a 7cbe
00000030: 76c4 4fbe 9329 163e b918 193f 90d3 89bf

model/conv2d_2/Conv2D f4 [16, 16, 3, 3]
-0.12157255 -0.068278104 -0.13589808 0.011504124 0.045171775 -0.04385671 0.09057588 0.06576007
0.080749184 0.0930518 0.13300598 0.17943606 0.024040326 0.06120627 0.008498018 0.041919887
-0.07797744 -0.13459356 -0.06137688 0.1324352 0.12776086 -0.018519608 0.03212302 0.009982652
-0.098775014 -0.088254414 0.042247742 0.014558761 -0.043131158 0.015608067 0.0148098385 0.03253355
-0.028140634 -0.13229077 -0.08187332 -0.057345476 -0.14586626 0.047844242 0.13389719 -0.028262973
0.030964494 0.019654138 -0.034479298 0.03543274 -0.023967812 0.034225866 -0.016542967 -0.01922268
-0.041475978 -0.057667036 -0.0089935055 0.04367234 -0.07853553 -0.062277615 0.12376575 0.08668722
0.010813282 -0.015226671 0.04912 -0.011261429 -0.055517867 -0.05134709 -0.09541338 0.032404847
0.1406855 0.06046464 0.07184026 0.17894867 0.05206226 -0.0063510383 0.026237527 0.011432569
-0.09042688 -0.107472256 -0.021095797 0.033789203 0.015944088 0.021285478 -0.01262792 0.0874447
0.050628785 0.0648104 -0.010941139 -0.045841627 0.026545573 -0.032259155 -0.021697486 -0.08102427
-0.09658391 -0.01690151 0.04221958 0.06408731 0.06772236 0.0001072148 0.010435542 0.045439042
-0.115190625 -0.10441489 -0.0050050155 -0.06353028 0.10040792 0.106605634 -0.031797178 0.103262275
0.06955245 -0.12705031 -0.007510385 0.03647712 0.038141116 0.07442502 -0.050123017 0.018801928
0.027772833 -0.07262764 0.037333544 0.0005014496 -0.067163415 0.02868978 0.039732717 0.08700872
-0.11399995 -0.07673773 0.01499536 -0.17799416 -0.14407696 -0.12338126 -0.028199632 0.043540172
-0.023524007 -0.082799226 -0.028181821 -0.065494895 -0.09339521 -0.0008050462 -0.11245889 -0.100752935
-0.036809836 0.07520906 0.013313879 -0.108091295 -0.100740045 0.04168133 -0.049612902 0.0031377631
0.026412232 0.118103676 -0.078656435 0.27830458 0.01059885 -0.210396 0.13572823 -0.07576351
-0.17631659 0.11292624 -0.04347394 -0.03601389 0.11182026 -0.042184096 -0.121591076 -0.09072369
-0.1387943 0.0035503737 -0.053094782 -0.053616695 0.07616056 -0.08251897 -0.10717047 0.24259014
-0.124654874 -0.022556182 0.09641904 -0.050961573 0.11128709 -0.09120711 0.16112019 -0.05420164
-0.17319398 0.16053212 -0.15714006 -0.08583333 -0.10189153 0.13578437 -0.18262407 0.09479318
0.2510266 -0.26049623 -0.052633874 0.12600815 -0.16871016 -0.06082785 0.06759927 0.06370159
-0.083587855 -0.0030201292 0.13295956 -0.12564477 -0.040039133 -0.008609585 -0.16813858 -0.120870136
0.18980397 -0.06913408 -0.05791371 0.07621095 -0.028546505 0.080126405 0.044521242 0.038921274
-0.09144772 -0.10002723 0.07179118 -0.03752543 -0.054357227 -0.09639045 0.05808997 0.04399313
-0.021906894 0.00041203352 0.042977776 0.14898974 0.015778301 0.173545 -0.023568207 -0.051151138
-0.025244636 0.14212899 0.014716047 0.017169012 -0.011615568 -0.0983649 0.01279868 -0.030082807
-0.09225462 0.120216765 0.0010928663 -0.0038670064 -0.020312818 0.11326899 0.021506645 0.031524274
0.02726884 -0.09021827 -0.08842935 0.018141719 0.0046581863 -0.024004746 0.013436621 0.054532766
-0.016540011 0.01036206 0.10829262 0.016878866 -0.116385594 -0.06549625 0.017769905 -0.17610413
00000000: 07fb f8bd 64d5 8bbd de28 0bbe cb7b 3c3c
00000010: 0a06 393d 18a3 33bd d97f b93d 37ad 863d
00000020: d45f a53d f191 be3d b832 083e 16be 373e
00000030: 38f0 c43c 6db3 7a3d 453b 0b3c 30b4 2b3d
00000040: a3b2 9fbd e5d2 09be 5366 7bbd 189d 073e
00000050: bed3 023e 6fb6 97bc 6e93 033d 478e 233c
00000060: 8e4a cabd bbbe b4bd f80b 2d3d df87 6e3c
00000070: 4caa 30bd fab8 7f3c f7a4 723c e641 053d
00000080: 3087 e6bc 3b77 07be 33ad a7bd 17e3 6abd
00000090: f75d 15be 53f8 433d 581c 093e c087 e7bc
000000a0: 40a9 fd3c b701 a13c 2a3a 0dbd ec21 113d
000000b0: 2558 c4bc 6c30 0c3d 1e85 87bc e278 9dbc
000000c0: b7e2 29bd 4534 6cbd 7f59 13bc c5e1 323d
000000d0: 3cd7 a0bd d016 7fbd e678 fd3d 1289 b13d
000000e0: 312a 313c 4979 79bc 0e32 493d db81 38bc
000000f0: b466 63bd 5451 52bd 1768 c3bd f2ba 043d
00000100: dc0f 103e c5a9 773d fc20 933d 523e 373e
00000110: 3d3f 553d 5f1c d0bb 15f0 d63c ab4f 3b3c
00000120: ba31 b9bd 6a1a dcbd 18d1 acbc 8c66 0a3d
00000130: 2d9d 823c e25e ae3c 56e5 4ebc 3516 b33d
00000140: 2160 4f3d 51bb 843d 7742 33bc 6ec4 3bbd
00000150: 1a76 d93c 2d22 04bd edbe b1bc 0df0 a5bd
00000160: c9cd c5bd 0975 8abc 70ee 2c3d 3540 833d
00000170: 05b2 8a3d 82d8 e038 d6f9 2a3c 4a1e 3a3d
00000180: 10e9 ebbd 79d7 d5bd 1d01 a4bb 2a1c 82bd
00000190: aba2 cd3d 0e54 da3d c23d 02bd 2c7b d33d
000001a0: 8471 8e3d 7a19 02be ad19 f6bb 0869 153d
000001b0: dc39 1c3d 256c 983d cb4d 4dbd 8006 9a3c
000001c0: da83 e33c cdbd 94bd 0feb 183d b773 033a
000001d0: f98c 89bd d406 eb3c c6be 223d a131 b23d
000001e0: ce78 e9bd ac28 9dbd 19af 753c 1a44 36be
000001f0: e988 13be 50af fcbd ea02 e7bc 2e57 323d
00000200: 6bb5 c0bc a492 a9bd 90dd e6bc 3022 86bd
00000210: fd45 bfbd bc09 53ba d950 e6bd 8e57 cebd
00000220: e9c5 16bd 3507 9a3d 7522 5a3c f85e ddbd
00000230: cc50 cebd 0bba 2a3d e636 4bbd eea2 4d3b
00000240: 775e d83c 57e0 f13d a016 a1bd f07d 8e3e
00000250: cda6 2d3c 0d72 57be 57fc 0a3e e629 9bbd
00000260: 568c 34be df45 e73d bb11 32bd 4d83 13bd
00000270: 0502 e53d 3bc9 2cbd be04 f9bd 58cd b9bd
00000280: 1820 0ebe 63ad 683b ea79 59bd 2e9d 5bbd
00000290: 11fa 9b3d b5ff a8bd 317c dbbd 8d69 783e
000002a0: 0e4b ffbd bec7 b8bc 5877 c53d 15bd 50bd
000002b0: 7cea e33d cbca babd b1fc 243e 8a02 5ebd
000002c0: c359 31be 8862 243e 53e9 20be 63c9 afbd
000002d0: 82ac d0bd 0f0b 0b3e ce01 3bbe ed22 c23d
000002e0: 8f86 803e c35f 85be 9e96 57bd 4808 013e
000002f0: 5bc2 2cbe a026 79bd 7c71 8a3d fb75 823d
00000300: 1c30 abbd 5ced 45bb 8d26 083e 06a9 00be
00000310: 1300 24bd 380f 0dbc 852c 2cbe c38a f7bd
00000320: f95b 423e 2b96 8dbd ed36 6dbd 7d14 9c3d
00000330: 5cda e9bc 5019 a43d e85b 363d ea6b 1f3d
00000340: f148 bbbd 14db ccbd 4107 933d 44b4 19bd
00000350: afa5 5ebd 5b68 c5bd c0ef 6d3d 2432 343d
00000360: 1676 b3bc 3406 d839 7709 303d c490 183e
00000370: 7f41 813c c8b5 313e 1d12 c1bc db83 51bd
00000380: d7cd cebc 438a 113e 931b 713c 07a6 8c3c
00000390: 394f 3ebc 8973 c9bd 8eb1 513c 3870 f6bc
000003a0: fdef bcbd 3534 f63d 823e 8f3a 9a6d 7dbb
000003b0: 1167 a6bc 92f9 e73d b42e b03c 991f 013d
000003c0: e762 df3c 5bc4 b8bd 721a b5bd f19d 943c
000003d0: b3a3 983b 9aa5 c4bc 4625 5c3c c05d 5f3d
000003e0: eb7e 87bc a1c5 293c 85c8 dd3d 8c45 8a3c
000003f0: 925b eebd e622 86bd 3192 913c a454 34be

model/activation_5/Relu;model/batch_normalization_5/FusedBatchNormV3;model/conv2d_6/BiasAdd/ReadVariableOp/resource;model/conv2d_6/BiasAdd;model/conv2d_8/Conv2D;model/conv2d_6/Conv2D f4 [64]
0.61593276 1.2526116 1.5339283 -1.0105937 -0.15669425 0.3442937 1.0304717 -1.6995753
0.30748644 0.36473978 1.6914828 -0.18455786 0.5630743 0.24343376 0.36607927 1.3374201
-0.017502753 -0.5417711 0.20607568 0.9071566 5.387806e-05 1.0693027 -0.6038722 -1.6329223
1.4610196 0.9118232 0.41693023 0.94848377 -0.6134369 -1.059224 -0.4630777 -1.8403021
-1.6184423 -0.020496543 0.7027962 -0.94720954 1.3682307 -2.7169716 -0.2708834 2.0486884
0.31515288 1.5143336 1.6930987 -0.3676482 -0.21705757 -0.34770957 1.9788337 0.10823206
-1.6688781 -0.14719407 0.34731755 0.53341115 -0.88954717 -0.3756366 -0.887661 1.0978051
-1.3165414 0.89715046 -0.77384627 0.7146465 -0.3615131 -1.9512317 0.55533135 1.2321552
00000000: c5ad 1d3f 9455 a03f c357 c43f 225b 81bf
00000010: 7574 20be 4447 b03e 7fe6 833f af8b d9bf
00000020: dd6e 9d3e 2cbf ba3e 8282 d83f bcfc 3cbe
00000030: a325 103f b346 793e be6e bb3e 9530 ab3f
00000040: ef61 8fbc 83b1 0abf 8105 533e 6a3b 683f
00000050: 20fb 6138 e9de 883f 5e97 1abf 9903 d1bf
00000060: b102 bb3f 3f6d 693f e177 d53e d5cf 723f
00000070: 330a 1dbf a794 87bf 8518 edbe 058f ebbf
00000080: 1e29 cfbf 5ee8 a7bc 74ea 333f 537c 72bf
00000090: 2f22 af3f dde2 2dc0 3bb1 8abe b61d 0340
000000a0: b85b a13e afd5 c13f 75b7 d83f 633c bcbe
000000b0: 5744 5ebe fd06 b2be 6c4a fd3f c5a8 dd3d
000000c0: cc9d d5bf 0bba 16be 9bd3 b13e a28d 083f
000000d0: 5db9 63bf 7153 c0be c03d 63bf e184 8c3f
000000e0: 6e84 a8bf a7ab 653f ca1a 46bf 13f3 363f
000000f0: 3f18 b9be f6c1 f9bf 322a 0e3f 43b7 9d3f

model/conv2d_8/BiasAdd;model/conv2d_8/Conv2D;model/conv2d_8/BiasAdd/ReadVariableOp/resource f4 [64]
-0.36678937 0.04833162 -0.30112907 -0.22898093 -0.10816871 -0.5882397 -0.24742629 -0.09530204
-0.1614148 -0.21010049 -0.04137389 0.01153556 -0.3315262 -0.15965521 -0.0065348456 -0.03225304
-0.055495925 -0.28002667 -0.05915506 0.1187796 -0.12562525 -0.16747482 0.036562983 -0.14632483
-0.070665844 -0.23489021 -0.026217133 -0.75639737 -0.22845954 -0.15404274 -0.2736044 -0.10462487
-0.21934451 0.13228151 -0.0107040955 -0.656283 -0.15562199 -0.1846279 -0.19417982 0.06173137
-0.12491414 -0.29678628 -0.025495911 -0.37002856 0.096596815 -0.13625266 -0.11376201 -0.2482467
0.0189152 -0.19172274 -0.28093553 -0.28223038 0.007626816 -0.53473914 -0.4604014 -0.4436821
0.017475227 -0.0735916 -0.049216416 -0.09277566 -0.25776348 0.060067315 -0.2084831 -0.03235983
00000000: d1cb bbbe 60f7 453d 972d 9abe fa79 6abe
00000010: 8e87 ddbd e196 16bf 515d 7dbe b72d c3bd
00000020: ec49 25be 9524 57be ab77 29bd a5ff 3c3c
00000030: cdbd a9be a87c 23be 4222 d6bb c31b 04bd
00000040: b24f 63bd a85f 8fbe 944c 72bd b842 f33d
00000050: e8a3 00be 857e 2bbe 11c3 153d 2dd6 15be
00000060: 41b9 90bd 0f87 70be 50c5 d6bc 42a3 41bf
00000070: 4cf1 69be 61bd 1dbe e015 8cbe 9045 d6bd
00000080: d99b 60be ce74 073e 3b60 2fbc 2a02 28bf
00000090: 5f5b 1fbe 190f 3dbe 13d7 46be 08da 7c3d
000000a0: fcd2 ffbd 5ff4 97be cddc d0bc 6274 bdbe
000000b0: 8dd4 c53d d185 0bbe 0ffc e8bd 6234 7ebe
000000c0: 0df4 9a3c f752 44be c8d6 8fbe 8080 90be
000000d0: 5fea f93b aae4 08bf bbb9 ebbe 4d2a e3be
000000e0: 3528 8f3c 31b7 96bd 2797 49bd 2a01 bebd
000000f0: 93f9 83be 2509 763d 987c 55be be8b 04bd

model/batch_normalization_4/FusedBatchNormV3;model/conv2d_4/BiasAdd/ReadVariableOp/resource;model/conv2d_4/BiasAdd f4 [32]
1.5317461 -0.50376797 0.7685984 -0.7436379 0.6426256 -0.40378937 3.6702523 -0.04343378
3.635541 -1.8854316 0.4525734 1.8164856 1.4572929 1.9207528 -1.7212692 -1.0318604
3.3058045 0.73918587 0.28389403 2.4550955 -2.4134696 1.4273887 1.4506842 0.15982047
-0.17849194 1.1067301 -1.1931415 -1.0488012 3.1187837 -0.29626265 1.7118254 0.97192794
00000000: 4210 c43f f0f6 00bf ddc2 443f 0e5f 3ebf
00000010: 1c83 243f 7bbd cebe 6ae5 6a40 9fe7 31bd
00000020: b4ac 6840 d355 f1bf b3b7 e73e 9a82 e83f
00000030: 9388 ba3f 3adb f53f 8d52 dcbf 0014 84bf
00000040: 4d92 5340 493b 3d3f 8f5a 913e 4920 1d40
00000050: 4976 1ac0 acb4 b63f 05b0 b93f faa7 233e
00000060: 97c6 36be 55a9 8d3f dcb8 98bf 1e3f 86bf
00000070: 279a 4740 bdaf 97be 181d db3f 45d0 783f

model/conv2d_8/Conv2D f4 [64, 32, 1, 1]
0.0074857036 0.009505376 -0.029563382 0.11390444 -0.012010541 0.13668123 -0.1907014 -0.00930495
-0.15502168 0.053958368 0.052565206 0.032969527 -0.13672215 -0.10996566 0.1475575 -0.10447219
0.028168023 0.12748213 -0.1625262 0.06003192 -0.06332367 0.095020555 0.042022154 0.076408446
-0.033348355 -0.33019483 -0.063741 0.04088673 -0.21945682 0.09345435 0.06839032 -0.13696715
-0.059009455 0.015687043 0.10748664 0.018948402 -0.2202116 -0.021005495 -0.18118954 -0.18853138
-0.2610535 -0.05779557 0.029013133 -0.04147141 -0.13866147 -0.04158032 0.12115318 0.2009248
-0.1306779 0.029525764 0.28578895 0.016875237 0.14440662 0.0667243 -0.14453506 -0.09694616
-0.18759349 0.2738645 0.10318625 0.13005087 -0.2801541 0.051701162 0.06022825 0.19001092
0.16930015 0.09844738 -0.08971764 -0.2960838 -0.20495845 -0.096764855 0.18464302 0.05893293
-0.17747627 -0.04865134 0.006901276 -0.03777095 -0.030387394 0.1513881 0.016403107 0.093360595
0.0007164695 -0.09639916 -0.294651 -0.15570839 0.029924562 -0.08465694 0.1530447 0.011872895
-0.06591625 0.1284783 0.07095787 0.00029902585 -0.21794823 -0.12232458 -0.11120688 -0.12880301
0.11943635 -0.031447947 -0.031922285 -0.032298546 0.3899411 -0.008976851 -0.0007035652 0.17562069
0.22157232 -0.30961475 0.019535728 -0.024455415 0.27682838 -0.018943157 -0.052531328 -0.16372322
-0.00647997 -0.0376581 -0.0025218972 0.124946885 -0.18441308 -0.10002453 -0.07393748 -0.05833504
-0.15412611 -0.17824146 -0.035018753 0.0905455 0.29086608 -0.008053763 -0.09680955 -0.13606948
0.1646514 0.0045702877 0.026398811 0.14390124 0.29604682 0.045546893 -0.3301171 -0.18223913
0.1130734 0.075640015 0.16117032 -0.0897006 0.06408334 -0.018618602 0.003750094 -0.3030455
-0.19904257 -0.040804222 0.05165824 0.016171312 -0.0853731 -0.025274478 0.08446938 -0.07687016
0.1464094 -0.22909535 0.07240504 0.0830982 -0.029874459 -0.079203606 -0.11434336 -0.065346465
-0.2633461 -0.016911963 -0.28049192 0.100201264 -0.033766698 -0.066148564 -0.38566643 -0.1245576
-0.010236234 -0.011584186 0.12908813 0.051344205 -0.055040445 -0.041554686 -0.006329285 -0.3917337
0.032336436 0.037352692 -0.06654842 0.11166377 -0.04656993 0.010764158 -0.03255697 -0.072509274
0.015069674 -0.27099445 -0.020748453 -0.091299996 -0.227845 0.023401167 -0.1084057 -0.13496155
-0.37375462 -0.03827152 0.030203948 0.0771386 -0.10872773 -0.0024286539 -0.5297904 -0.16163486
-0.004176953 -0.20103371 0.08135356 -0.16092476 -0.1407971 -0.19747622 -0.16703218 -0.37663898
-0.10004729 0.01709912 0.17765038 0.1432457 0.06662525 -0.08738679 -0.01207751 -0.102881946
0.3647179 -0.2722717 0.014324113 -0.04090392 -0.27064654 -0.05015345 -0.0021236811 -0.02822128
-0.15472183 0.06337515 -0.25510582 -0.09743755 -0.03241331 -0.091750726 -0.2375451 0.02035322
0.15088664 0.09629485 0.029255839 0.026551954 0.25988722 -0.044868954 0.062649034 0.12077159
-0.066163085 0.027309814 0.003082839 -0.13413058 -0.09886216 0.042370014 -0.0821657 0.028853964
0.11041116 -0.16151853 -0.022421397 -0.021707598 -0.16078165 -0.018847734 -0.012874367 -0.17775463
00000000: a24a f53b 70bc 1b3c e82e f2bc bb46 e93d
00000010: dcc7 44bc 2af6 0b3e 3a47 43be ca73 18bc
00000020: 01be 1ebe 7303 5d3d 9d4e 573d 0e0b 073d
00000030: e400 0cbe ad35 e1bd 5019 173e 84f5 d5bd
00000040: a0c0 e63c ad8a 023e 456d 26be 08e4 753d
00000050: d7af 81bd 239a c23d 6c1f 2c3d 087c 9c3d
00000060: 4998 08bd 4c0f a9be a48a 82bd d878 273d
00000070: 4ab9 60be ff64 bf3d 3910 8c3d 1e41 0cbe
00000080: e6b3 71bd 1d82 803c f521 dc3d ae39 9b3c
00000090: 267f 61be b713 acbc c089 39be 5f0e 41be
000000a0: cea8 85be 0cbb 6cbd f3ac ed3c eddd 29bd
000000b0: 46fd 0dbe 2050 2abd 291f f83d 3bbf 4d3e
000000c0: 6dd0 05be 04e0 f13c ee52 923e f03d 8a3c
000000d0: 54df 133e c0a6 883d 0001 14be b58b c6bd
000000e0: 8218 40be f837 8c3e 5053 d33d 0e2c 053e
000000f0: 5c70 8fbe 99c4 533d e6b1 763d 3992 423e
00000100: 055d 2d3e c89e c93d e2bd b7bd 4c98 97be
00000110: a1e0 51be a72c c6bd 0f13 3d3e a863 713d
00000120: 57bc 35be a146 47bd 1924 e23b b6b5 1abd
00000130: fcee f8bc 7b05 1b3e cf5f 863c d733 bf3d
00000140: 74d1 3b3a ec6c c5bd 7fdc 96be 0572 1fbe
00000150: 5b24 f53c 9e60 adbd c0b7 1c3e 8886 423c
00000160: 19ff 86bd d18f 033e 5c52 913d 92c6 9c39
00000170: d22d 5fbe 4f85 fabd 6fc0 e3bd f0e4 03be
00000180: 0c9b f43d 90cf 00bd f1c0 02bd 7b4b 04bd
00000190: 5ca6 c73e a413 13bc 766f 38ba e9d5 333e
000001a0: dbe3 623e d385 9ebe 6409 a03c b956 c8bc
000001b0: 73bc 8d3e ae2e 9bbc 172b 57bd 0fa7 27be
000001c0: ee55 d4bb 613f 1abd 6a46 25bb 27e4 ff3d
000001d0: c8d6 3cbe a9d9 ccbd 896c 97bd b9f0 6ebd
000001e0: 3cd3 1dbe ee84 36be d36f 0fbd eb6f b93d
000001f0: 66ec 943e eef3 03bc 1644 c6bd cc55 0bbe
00000200: 609a 283e 5ac2 953b 5242 d83c d95a 133e
00000210: 7393 973e 618f 3a3d 1c05 a9be e59c 3abe
00000220: 0793 e73d 27e9 9a3d d509 253e f3b4 b7bd
00000230: 203e 833d 0a86 98bc 23c4 753b c828 9bbe
00000240: d1d1 4bbe 5422 27bd 9797 533d b379 843c
00000250: 18d8 aebd 6c0c cfbc 48fe ac3d 1a6e 9dbd
00000260: 59ec 153e f997 6abe 1849 943d 642f aa3d
00000270: 48bb f4bc 8035 a2bd da2c eabd 5ed4 85bd
00000280: 4dd5 86be f58a 8abc a39c 8fbe 5236 cd3d
00000290: f34e 0abd e678 87bd 1276 c5be 0e18 ffbd
000002a0: e1b5 27bc 99cb 3dbc ae2f 043e 4d4e 523d
000002b0: 1772 61bd 3f35 2abd e465 cfbb 5291 c8be
000002c0: 3673 043d 23ff 183d 8a4a 88bd faaf e43d
000002d0: 1cc0 3ebd 275c 303c 755a 05bd be7f 94bd
000002e0: cbe6 763c c9bf 8abe a9f8 a9bc 7efb babd
000002f0: 3350 69be ceb3 bf3c cf03 debd 5c33 0abe
00000300: c45c bfbe 99c2 1cbd 456e f73c d8fa 9d3d
00000310: a5ac debd 0d2a 1fbb 58a0 07bf 9c83 25be
00000320: d2de 88bb c8db 4dbe b29c a63d 76c9 24be
00000330: 1d2d 10be 3537 4abe 7c0a 2bbe d3d6 c0be
00000340: 98e5 ccbd 7413 8c3c fbe9 353e 00af 123e
00000350: d272 883d d8f7 b2bd c0e0 45bc c5b3 d2bd
00000360: 4ebc ba3e 3267 8bbe afaf 6a3c de8a 27bd
00000370: 2f92 8abe b46d 4dbd 752d 0bbb 5030 e7bc
00000380: 666f 1ebe d5ca 813d 3b9d 82be 578d c7bd
00000390: d2c3 04bd cee7 bbbd 063f 73be ccbb a63c
000003a0: 0782 1a3e 3c36 c53d f1a9 ef3c 7c83 d93c
000003b0: f00f 853e 82c8 37bd 234e 803d 1857 f73d
000003c0: 8380 87bd d5b8 df3c 7509 4a3b 8759 09be
000003d0: 3f78 cabd 2e8c 2d3d 7e46 a8bd 265f ec3c
000003e0: 3f1f e23d 1d65 25be 14ad b7bc 22d4 b1bc
000003f0: f2a3 24be 9066 9abc 02ef 52bc 4f05 36be

model/conv2d_4/Conv2D f4 [32, 32, 3, 3]
-0.26157397 0.089894645 0.07718651 -0.20084009 0.21777283 0.18365388 -0.12156597 0.2391573
0.19061917 -0.115429 -0.06805088 0.06989329 -0.20232798 -0.17695178 0.09677197 -0.14519686
-0.19542904 -0.094403826 0.16109091 0.3081562 0.13138741 0.10883857 0.20994242 0.037797954
-0.066643886 0.12033789 0.014158569 -0.0067491005 0.06897268 0.2635732 -0.34265378 -0.1309699
0.14240202 -0.13186996 0.021801176 0.16990614 -0.07818682 -0.20050398 0.0088934405 -0.030244157
-0.24010465 -0.3286958 0.23225138 0.18874165 -0.15251435 -0.15373255 -0.15519045 -0.06254268
-0.15031478 0.09295366 0.06951434 -0.17905971 -0.18017526 -0.068429165 0.05303139 0.14266455
-0.083709255 -0.06963303 0.11419259 0.016661294 -0.03687354 0.028416112 0.10168852 0.19432367
-0.14765416 -0.3098984 0.4611193 -0.016217746 -0.24063843 0.18999845 -0.12906532 -0.21282665
0.019030351 -0.12211483 -0.29806933 0.058723412 0.041686952 -0.017082348 -0.13504653 -0.15584187
-0.047370035 0.01802484 0.014963987 0.046603177 -0.14661342 0.03487015 0.27531096 -0.22159499
-0.11398271 0.19507234 -0.034287155 -0.10434818 -0.08019624 -0.018751217 0.002159943 -0.0047209836
0.046794187 0.08158505 0.07004119 0.019360233 0.002759659 -0.13922001 -0.045402657 -0.08485837
0.056726623 -0.07259355 0.080013946 0.13582519 0.014698619 0.01782214 0.06991778 -0.04435535
0.0064360537 0.061287154 -0.13571534 0.009191867 0.14396407 -0.25680047 0.010786839 0.088990234
-0.12517473 0.05599112 0.2075703 -0.11574409 0.11392241 0.21965274 0.13571496 -0.14219247
-0.20598075 0.25255826 -0.07579582 -0.3420481 0.21000265 -0.04255646 -0.4214355 0.09466789
-0.10746507 -0.23255463 0.143443 -0.09938924 -0.10051538 -0.017165484 -0.13806032 0.015184848
-0.11539686 0.08302118 -0.012885731 -0.06840762 0.06005981 -0.0021732603 -0.12584221 0.004827735
0.098961286 -0.08988481 -0.17518575 0.16996402 -0.113975115 -0.27646503 0.067272276 -0.09623046
-0.24022588 0.085005954 -0.0653773 -0.11433482 -0.015055535 -0.03852728 -0.01675457 0.053929612
-0.0023974348 -0.034082457 -0.057957068 -0.10810946 -0.10430813 -0.08767355 0.021013493 0.014157632
0.05412861 -0.003677707 0.15740801 0.11168168 -0.119628526 -0.04413642 -0.14122722 0.034318943
-0.14793241 0.0050688866 0.0065781833 -0.18995552 -0.022939842 -0.19273596 -0.18643774 0.017458891
0.03225354 0.036100417 0.09634133 0.04755187 0.085640766 0.16188316 -0.2393287 -0.13866219
0.096285395 -0.23752657 -0.09764519 0.022141697 -0.21302529 -0.2874869 0.0528869 -0.114025496
0.047166817 0.07173432 0.004852927 0.005014082 0.041335028 -0.018892342 -0.06303081 0.022172721
-0.22327507 -0.12218442 -0.04985892 -0.23560622 0.03331177 0.34274793 -0.007902155 0.036560733
0.15425101 0.17534767 -0.043763705 -0.07890157 0.16855809 -0.10544615 -0.1674652 0.03972615
0.015459383 -0.0532106 0.20051672 0.19373363 -0.121322826 0.098105334 0.15413265 0.0047948156
0.17843853 -0.054282643 -0.013438817 -0.120758764 0.021487514 0.055968326 -0.19581625 -0.051688597
0.029882258 -0.21867496 -0.14434862 -0.033925083 -0.043805536 -0.0558827 0.10670898 -0.010885138
00000000: 06ed 85be af1a b83d f613 9e3d 06a9 4dbe
00000010: d7ff 5e3e c30f 3c3e 94f7 f8bd a7e5 743e
00000020: ac31 433e 0a66 ecbd 435e 8bbd 3724 8f3d
00000030: 112f 4fbe d932 35be 6230 c63d 7cae 14be
00000040: 8d1e 48be cb56 c1bd 04f5 243e a6c6 9d3e
00000050: 6c8a 063e c2e6 de3d 25fb 563e 07d2 1a3d
00000060: 977c 88bd b673 f63d 58f9 673c 8f27 ddbb
00000070: 8c41 8d3d 11f3 863e 5170 afbe f91c 06be
00000080: d6d1 113e eb08 07be 6198 b23c e0fb 2d3e
00000090: 6920 a0bd ea50 4dbe cbb5 113c 98c2 f7bc
000000a0: fedd 75be d14a a8be 4ed3 6d3e 7e45 413e
000000b0: b92c 1cbe 116c 1dbe 3fea 1ebe 6016 80bd
000000c0: 1eec 19be 7d5e be3d 895d 8e3d 6e5b 37be
000000d0: dd7f 38be 9724 8cbd 7137 593d a816 123e
000000e0: c26f abbd c39b 8ebd cedd e93d 447d 883c
000000f0: b608 17bd e8c8 e83c 1242 d03d c9fc 463e
00000100: a732 17be 01ab 9ebe d417 ec3e 14db 84bc
00000110: ec69 76be f48e 423e b329 04be 3bef 59be
00000120: 8ae5 9b3c 5717 fabd 8b9c 98be f687 703d
00000130: f0bf 2a3d 48f0 8bbc a349 0abe 0395 1fbe
00000140: 1507 42bd d4a8 933c 832b 753c f9e2 3e3d
00000150: d421 16be 01d4 0e3d 8ff5 8c3e cce9 62be
00000160: c46f e9bd 0bc1 473e b070 0cbd 80b4 d5bd
00000170: ed3d a4bd 279c 99bc d58d 0d3b 7bb2 9abb
00000180: 43ab 3f3d 1016 a73d c171 8f3d 5a99 9e3c
00000190: 65db 343b b18f 0ebe 23f8 39bd 3aca adbd
000001a0: 2d5a 683d edab 94bd 5ade a33d c215 0b3e
000001b0: 7ad2 703c bdff 913c 0e31 8f3d f5ad 35bd
000001c0: 88e5 d23b 3d08 7b3d f6f8 0abe 7c99 163c
000001d0: 516b 133e 5a7b 83be 48bb 303c 8340 b63d
000001e0: ce2d 00be f256 653d 4f8d 543e 3d0b edbd
000001f0: 2750 e93d a6ec 603e ddf8 0a3e e79a 11be
00000200: 9eec 52be 514f 813e d73a 9bbd ee20 afbe
00000210: ef0a 573e af4f 2ebd 65c6 d7be 3de1 c13d
00000220: a616 dcbd cd22 6ebe b9e2 123e 968c cbbd
00000230: 02db cdbd a19e 8cbc af5f 0dbe dec9 783c
00000240: 3055 ecbd 0207 aa3d ac1e 53bc 4b19 8cbd
00000250: 4601 763d 426d 0ebb c8dc 00be fa31 9e3b
00000260: 37ac ca3d 8715 b8bd e563 33be 0c0b 2e3e
00000270: c96b e9bd d38c 8dbe 0cc6 893d 7a14 c5bd
00000280: c6fd 75be 9a17 ae3d 89e4 85bd 6028 eabd
00000290: 7eab 76bc c8ce 1dbd e140 89bc 4ce5 5c3d
000002a0: 481e 1dbb 0c9a 0bbd 6464 6dbd 7e68 ddbd
000002b0: 809f d5bd 318e b3bd 7d24 ac3c 6af5 673c
000002c0: f6b5 5d3d af05 71bb 912f 213e 5db9 e43d
000002d0: cdff f4bd 64c8 34bd de9d 10be 0592 0c3d
000002e0: 987b 17be e718 a63b cd8d d73b b383 42be
000002f0: 56ec bbbc 935c 45be 89e9 3ebe f305 8f3c
00000300: 4a1c 043d 08de 133d 9a4e c53d c0c5 423d
00000310: 6d64 af3d b3c4 253e 9512 75be 76fd 0dbe
00000320: 4731 c53d 2a3a 73be 34fa c7bd 8162 b53c
00000330: 4d23 5abe 7c31 93be ef9f 583d 3386 e9bd
00000340: fe31 413d 71e9 923d 4d05 9f3b 2b4d a43b
00000350: eb4e 293d 1dc4 9abc 4c16 81bd 91a3 b53c
00000360: 38a2 64be d33b fabd de38 4cbd c242 71be
00000370: ec71 083d a87c af3e 0a78 01bc b5c0 153d
00000380: faf3 1d3e 578e 333e 9241 33bd 2597 a1bd
00000390: 7e9a 2c3e 27f4 d7bd ff7b 2bbe e3b7 223d
000003a0: 5a49 7d3c 5cf3 59bd 4154 4d3e 1c62 463e
000003b0: 1a78 f8bd 73eb c83d f3d4 1d3e d41d 9d3b
000003c0: 97b8 363e 7a57 5ebd 7c2e 5cbc 5f50 f7bd
000003d0: 9506 b03c 0b3f 653d 0e84 48be 6cb7 53bd
000003e0: a3cb f43c 54ec 5fbe 20d0 13be 07f5 0abd
000003f0: 6f6d 33bd 42e5 64bd 3d8a da3d 9457 32bc

model/activation_1/Relu;model/batch_normalization_1/FusedBatchNormV3;model/conv2d_1/BiasAdd/ReadVariableOp/resource;model/conv2d_1/BiasAdd;model/conv2d_2/Conv2D;model/conv2d_1/Conv2D f4 [16]
3.7215426 -1.0901909 2.666497 1.3137591 3.7059937 0.50224614 -0.7005625 0.41491246
1.7747322 0.012725094 -4.556756 -1.1324037 0.44964403 0.13601612 0.1751355 1.1474755
00000000: c12d 6e40 608b 8bbf e3a7 2a40 4229 a83f
00000010: 002f 6d40 3493 003f 1058 33bf 686f d43e
00000020: 6d2a e33f ea7c 503c f2d0 91c0 9bf2 90bf
00000030: be37 e63e cf47 0b3e b856 333e 7ae0 923f
